…
09:17.191880Z"}},"outputs":[{"name":"stdout","text":"Model: \"model\"\n__________________________________________________________________________________________________\n Layer (type)                Output Shape                 Param #   Connected to                  \n==================================================================================================\n input_1 (InputLayer)        [(None, 64, 64, 3)]          0         []                            \n                                                                                                  \n conv2d (Conv2D)             (None, 64, 64, 64)           15616     ['input_1[0][0]']             \n                                                                                                  \n p_re_lu (PReLU)             (None, 64, 64, 64)           64        ['conv2d[0][0]']              \n                                                                                                  \n conv2d_1 (Conv2D)           (None, 64, 64, 64)           36928     ['p_re_lu[0][0]']             \n                                                                                                  \n batch_normalization (Batch  (None, 64, 64, 64)           256       ['conv2d_1[0][0]']            \n Normalization)                                                                                   \n                                                                                                  \n p_re_lu_1 (PReLU)           (None, 64, 64, 64)           64        ['batch_normalization[0][0]'] \n                                                                                                  \n conv2d_2 (Conv2D)           (None, 64, 64, 64)           36928     ['p_re_lu_1[0][0]']           \n                                                                                                  \n batch_normalization_1 (Bat  (None, 64, 64, 64)           256       ['conv2d_2[0][0]']            \n chNormalization)                                                                                 \n                                                                                                  \n add (Add)                   (None, 64, 64, 64)           0         ['p_re_lu[0][0]',             \n                                                                     'batch_normalization_1[0][0]'\n                                                                    ]                             \n                                                                                                  \n conv2d_3 (Conv2D)           (None, 64, 64, 64)           36928     ['add[0][0]']                 \n                                                                                                  \n batch_normalization_2 (Bat  (None, 64, 64, 64)           256       ['conv2d_3[0][0]']            \n chNormalization)                                                                                 \n                                                                                                  \n p_re_lu_2 (PReLU)           (None, 64, 64, 64)           64        ['batch_normalization_2[0][0]'\n                                                                    ]                             \n                                                                                                  \n conv2d_4 (Conv2D)           (None, 64, 64, 64)           36928     ['p_re_lu_2[0][0]']           \n                                                                                                  \n batch_normalization_3 (Bat  (None, 64, 64, 64)           256       ['conv2d_4[0][0]']            \n chNormalization)                                                                                 \n                                                                                                  \n add_1 (Add)                 (None, 64, 64, 64)           0         ['add[0][0]',                 \n                                                                     'batch_normalization_3[0][0]'\n                                                                    ]                             \n                                                                                                  \n conv2d_5 (Conv2D)           (None, 64, 64, 64)           36928     ['add_1[0][0]']               \n                                                                                                  \n batch_normalization_4 (Bat  (None, 64, 64, 64)           256       ['conv2d_5[0][0]']            \n chNormalization)                                                                                 \n                                                                                                  \n p_re_lu_3 (PReLU)           (None, 64, 64, 64)           64        ['batch_normalization_4[0][0]'\n                                                                    ]                             \n                                                                                                  \n conv2d_6 (Conv2D)           (None, 64, 64, 64)           36928     ['p_re_lu_3[0][0]']           \n                                                                                                  \n batch_normalization_5 (Bat  (None, 64, 64, 64)           256       ['conv2d_6[0][0]']            \n chNormalization)                                                                                 \n                                                                                                  \n add_2 (Add)                 (None, 64, 64, 64)           0         ['add_1[0][0]',               \n                                                                     'batch_normalization_5[0][0]'\n                                                                    ]                             \n                                                                                                  \n conv2d_7 (Conv2D)           (None, 64, 64, 64)           36928     ['add_2[0][0]']               \n                                                                                                  \n batch_normalization_6 (Bat  (None, 64, 64, 64)           256       ['conv2d_7[0][0]']            \n chNormalization)                                                                                 \n                                                                                                  \n p_re_lu_4 (PReLU)           (None, 64, 64, 64)           64        ['batch_normalization_6[0][0]'\n                                                                    ]                             \n                                                                                                  \n conv2d_8 (Conv2D)           (None, 64, 64, 64)           36928     ['p_re_lu_4[0][0]']           \n                                                                                                  \n batch_normalization_7 (Bat  (None, 64, 64, 64)           256       ['conv2d_8[0][0]']            \n chNormalization)                                                                                 \n                                                                                                  \n add_3 (Add)                 (None, 64, 64, 64)           0         ['add_2[0][0]',               \n                                                                     'batch_normalization_7[0][0]'\n                                                                    ]                             \n                                                                                                  \n conv2d_9 (Conv2D)           (None, 64, 64, 64)           36928     ['add_3[0][0]']               \n                                                                                                  \n batch_normalization_8 (Bat  (None, 64, 64, 64)           256       ['conv2d_9[0][0]']            \n chNormalization)                                                                                 \n                                                                                                  \n p_re_lu_5 (PReLU)           (None, 64, 64, 64)           64        ['batch_normalization_8[0][0]'\n                                                                    ]                             \n                                                                                                  \n conv2d_10 (Conv2D)          (None, 64, 64, 64)           36928     ['p_re_lu_5[0][0]']           \n                                                                                                  \n batch_normalization_9 (Bat  (None, 64, 64, 64)           256       ['conv2d_10[0][0]']           \n chNormalization)                                                                                 \n                                                                                                  \n add_4 (Add)                 (None, 64, 64, 64)           0         ['add_3[0][0]',               \n                                                                     'batch_normalization_9[0][0]'\n                                                                    ]                             \n                                                                                                  \n conv2d_11 (Conv2D)          (None, 64, 64, 64)           36928     ['add_4[0][0]']               \n                                                                                                  \n batch_normalization_10 (Ba  (None, 64, 64, 64)           256       ['conv2d_11[0][0]']           \n tchNormalization)                                                                                \n                                                                                                  \n p_re_lu_6 (PReLU)           (None, 64, 64, 64)           64        ['batch_normalization_10[0][0]\n                                                                    ']                            \n                                                                                                  \n conv2d_12 (Conv2D)          (None, 64, 64, 64)           36928     ['p_re_lu_6[0][0]']           \n                                                                                                  \n batch_normalization_11 (Ba  (None, 64, 64, 64)           256       ['conv2d_12[0][0]']           \n tchNormalization)                                                                                \n                                                                                                  \n add_5 (Add)                 (None, 64, 64, 64)           0         ['add_4[0][0]',               \n                                                                     'batch_normalization_11[0][0]\n                                                                    ']                            \n                                                                                                  \n conv2d_13 (Conv2D)          (None, 64, 64, 64)           36928     ['add_5[0][0]']               \n                                                                                                  \n batch_normalization_12 (Ba  (None, 64, 64, 64)           256       ['conv2d_13[0][0]']           \n tchNormalization)                                                                                \n                                                                                                  \n p_re_lu_7 (PReLU)           (None, 64, 64, 64)           64        ['batch_normalization_12[0][0]\n                                                                    ']                            \n                                                                                                  \n conv2d_14 (Conv2D)          (None, 64, 64, 64)           36928     ['p_re_lu_7[0][0]']           \n                                                                                                  \n batch_normalization_13 (Ba  (None, 64, 64, 64)           256       ['conv2d_14[0][0]']           \n tchNormalization)                                                                                \n                                                                                                  \n add_6 (Add)                 (None, 64, 64, 64)           0         ['add_5[0][0]',               \n                                                                     'batch_normalization_13[0][0]\n                                                                    ']                            \n                                                                                                  \n conv2d_15 (Conv2D)          (None, 64, 64, 64)           36928     ['add_6[0][0]']               \n                                                                                                  \n batch_normalization_14 (Ba  (None, 64, 64, 64)           256       ['conv2d_15[0][0]']           \n tchNormalization)                                                                                \n                                                                                                  \n p_re_lu_8 (PReLU)           (None, 64, 64, 64)           64        ['batch_normalization_14[0][0]\n                                                                    ']                            \n                                                                                                  \n conv2d_16 (Conv2D)          (None, 64, 64, 64)           36928     ['p_re_lu_8[0][0]']           \n                                                                                                  \n batch_normalization_15 (Ba  (None, 64, 64, 64)           256       ['conv2d_16[0][0]']           \n tchNormalization)                                                                                \n                                                                                                  \n add_7 (Add)                 (None, 64, 64, 64)           0         ['add_6[0][0]',               \n                                                                     'batch_normalization_15[0][0]\n                                                                    ']                            \n                                                                                                  \n conv2d_17 (Conv2D)          (None, 64, 64, 64)           36928     ['add_7[0][0]']               \n                                                                                                  \n batch_normalization_16 (Ba  (None, 64, 64, 64)           256       ['conv2d_17[0][0]']           \n tchNormalization)                                                                                \n                                                                                                  \n p_re_lu_9 (PReLU)           (None, 64, 64, 64)           64        ['batch_normalization_16[0][0]\n                                                                    ']                            \n                                                                                                  \n conv2d_18 (Conv2D)          (None, 64, 64, 64)           36928     ['p_re_lu_9[0][0]']           \n                                                                                                  \n batch_normalization_17 (Ba  (None, 64, 64, 64)           256       ['conv2d_18[0][0]']           \n tchNormalization)                                                                                \n                                                                                                  \n add_8 (Add)                 (None, 64, 64, 64)           0         ['add_7[0][0]',               \n                                                                     'batch_normalization_17[0][0]\n                                                                    ']                            \n                                                                                                  \n conv2d_19 (Conv2D)          (None, 64, 64, 64)           36928     ['add_8[0][0]']               \n                                                                                                  \n batch_normalization_18 (Ba  (None, 64, 64, 64)           256       ['conv2d_19[0][0]']           \n tchNormalization)                                                                                \n                                                                                                  \n p_re_lu_10 (PReLU)          (None, 64, 64, 64)           64        ['batch_normalization_18[0][0]\n                                                                    ']                            \n                                                                                                  \n conv2d_20 (Conv2D)          (None, 64, 64, 64)           36928     ['p_re_lu_10[0][0]']          \n                                                                                                  \n batch_normalization_19 (Ba  (None, 64, 64, 64)           256       ['conv2d_20[0][0]']           \n tchNormalization)                                                                                \n                                                                                                  \n add_9 (Add)                 (None, 64, 64, 64)           0         ['add_8[0][0]',               \n                                                                     'batch_normalization_19[0][0]\n                                                                    ']                            \n                                                                                                  \n conv2d_21 (Conv2D)          (None, 64, 64, 64)           36928     ['add_9[0][0]']               \n                                                                                                  \n batch_normalization_20 (Ba  (None, 64, 64, 64)           256       ['conv2d_21[0][0]']           \n tchNormalization)                                                                                \n                                                                                                  \n p_re_lu_11 (PReLU)          (None, 64, 64, 64)           64        ['batch_normalization_20[0][0]\n                                                                    ']                            \n                                                                                                  \n conv2d_22 (Conv2D)          (None, 64, 64, 64)           36928     ['p_re_lu_11[0][0]']          \n                                                                                                  \n batch_normalization_21 (Ba  (None, 64, 64, 64)           256       ['conv2d_22[0][0]']           \n tchNormalization)                                                                                \n                                                                                                  \n add_10 (Add)                (None, 64, 64, 64)           0         ['add_9[0][0]',               \n                                                                     'batch_normalization_21[0][0]\n                                                                    ']                            \n                                                                                                  \n conv2d_23 (Conv2D)          (None, 64, 64, 64)           36928     ['add_10[0][0]']              \n                                                                                                  \n batch_normalization_22 (Ba  (None, 64, 64, 64)           256       ['conv2d_23[0][0]']           \n tchNormalization)                                                                                \n                                                                                                  \n p_re_lu_12 (PReLU)          (None, 64, 64, 64)           64        ['batch_normalization_22[0][0]\n                                                                    ']                            \n                                                                                                  \n conv2d_24 (Conv2D)          (None, 64, 64, 64)           36928     ['p_re_lu_12[0][0]']          \n                                                                                                  \n batch_normalization_23 (Ba  (None, 64, 64, 64)           256       ['conv2d_24[0][0]']           \n tchNormalization)                                                                                \n                                                                                                  \n add_11 (Add)                (None, 64, 64, 64)           0         ['add_10[0][0]',              \n                                                                     'batch_normalization_23[0][0]\n                                                                    ']                            \n                                                                                                  \n conv2d_25 (Conv2D)          (None, 64, 64, 64)           36928     ['add_11[0][0]']              \n                                                                                                  \n batch_normalization_24 (Ba  (None, 64, 64, 64)           256       ['conv2d_25[0][0]']           \n tchNormalization)                                                                                \n                                                                                                  \n p_re_lu_13 (PReLU)          (None, 64, 64, 64)           64        ['batch_normalization_24[0][0]\n                                                                    ']                            \n                                                                                                  \n conv2d_26 (Conv2D)          (None, 64, 64, 64)           36928     ['p_re_lu_13[0][0]']          \n                                                                                                  \n batch_normalization_25 (Ba  (None, 64, 64, 64)           256       ['conv2d_26[0][0]']           \n tchNormalization)                                                                                \n                                                                                                  \n add_12 (Add)                (None, 64, 64, 64)           0         ['add_11[0][0]',              \n                                                                     'batch_normalization_25[0][0]\n                                                                    ']                            \n                                                                                                  \n conv2d_27 (Conv2D)          (None, 64, 64, 64)           36928     ['add_12[0][0]']              \n                                                                                                  \n batch_normalization_26 (Ba  (None, 64, 64, 64)           256       ['conv2d_27[0][0]']           \n tchNormalization)                                                                                \n                                                                                                  \n p_re_lu_14 (PReLU)          (None, 64, 64, 64)           64        ['batch_normalization_26[0][0]\n                                                                    ']                            \n                                                                                                  \n conv2d_28 (Conv2D)          (None, 64, 64, 64)           36928     ['p_re_lu_14[0][0]']          \n                                                                                                  \n batch_normalization_27 (Ba  (None, 64, 64, 64)           256       ['conv2d_28[0][0]']           \n tchNormalization)                                                                                \n                                                                                                  \n add_13 (Add)                (None, 64, 64, 64)           0         ['add_12[0][0]',              \n                                                                     'batch_normalization_27[0][0]\n                                                                    ']                            \n                                                                                                  \n conv2d_29 (Conv2D)          (None, 64, 64, 64)           36928     ['add_13[0][0]']              \n                                                                                                  \n batch_normalization_28 (Ba  (None, 64, 64, 64)           256       ['conv2d_29[0][0]']           \n tchNormalization)                                                                                \n                                                                                                  \n p_re_lu_15 (PReLU)          (None, 64, 64, 64)           64        ['batch_normalization_28[0][0]\n                                                                    ']                            \n                                                                                                  \n conv2d_30 (Conv2D)          (None, 64, 64, 64)           36928     ['p_re_lu_15[0][0]']          \n                                                                                                  \n batch_normalization_29 (Ba  (None, 64, 64, 64)           256       ['conv2d_30[0][0]']           \n tchNormalization)                                                                                \n                                                                                                  \n add_14 (Add)                (None, 64, 64, 64)           0         ['add_13[0][0]',              \n                                                                     'batch_normalization_29[0][0]\n                                                                    ']                            \n                                                                                                  \n conv2d_31 (Conv2D)          (None, 64, 64, 64)           36928     ['add_14[0][0]']              \n                                                                                                  \n batch_normalization_30 (Ba  (None, 64, 64, 64)           256       ['conv2d_31[0][0]']           \n tchNormalization)                                                                                \n                                                                                                  \n p_re_lu_16 (PReLU)          (None, 64, 64, 64)           64        ['batch_normalization_30[0][0]\n                                                                    ']                            \n                                                                                                  \n conv2d_32 (Conv2D)          (None, 64, 64, 64)           36928     ['p_re_lu_16[0][0]']          \n                                                                                                  \n batch_normalization_31 (Ba  (None, 64, 64, 64)           256       ['conv2d_32[0][0]']           \n tchNormalization)                                                                                \n                                                                                                  \n add_15 (Add)                (None, 64, 64, 64)           0         ['add_14[0][0]',              \n                                                                     'batch_normalization_31[0][0]\n                                                                    ']                            \n                                                                                                  \n conv2d_33 (Conv2D)          (None, 64, 64, 64)           36928     ['add_15[0][0]']              \n                                                                                                  \n batch_normalization_32 (Ba  (None, 64, 64, 64)           256       ['conv2d_33[0][0]']           \n tchNormalization)                                                                                \n                                                                                                  \n add_16 (Add)                (None, 64, 64, 64)           0         ['p_re_lu[0][0]',             \n                                                                     'batch_normalization_32[0][0]\n                                                                    ']                            \n                                                                                                  \n conv2d_34 (Conv2D)          (None, 64, 64, 256)          147712    ['add_16[0][0]']              \n                                                                                                  \n lambda (Lambda)             (None, 128, 128, 64)         0         ['conv2d_34[0][0]']           \n                                                                                                  \n p_re_lu_17 (PReLU)          (None, 128, 128, 64)         64        ['lambda[0][0]']              \n                                                                                                  \n conv2d_35 (Conv2D)          (None, 128, 128, 256)        147712    ['p_re_lu_17[0][0]']          \n                                                                                                  \n lambda_1 (Lambda)           (None, 256, 256, 64)         0         ['conv2d_35[0][0]']           \n                                                                                                  \n p_re_lu_18 (PReLU)          (None, 256, 256, 64)         64        ['lambda_1[0][0]']            \n                                                                                                  \n conv2d_36 (Conv2D)          (None, 256, 256, 3)          15555     ['p_re_lu_18[0][0]']          \n                                                                                                  \n==================================================================================================\nTotal params: 1554883 (5.93 MB)\nTrainable params: 1550659 (5.92 MB)\nNon-trainable params: 4224 (16.50 KB)\n__________________________________________________________________________________________________\nModel: \"model_1\"\n_________________________________________________________________\n Layer (type)                Output Shape              Param #   \n=================================================================\n input_2 (InputLayer)        [(None, 256, 256, 3)]     0         \n                                                                 \n conv2d_37 (Conv2D)          (None, 256, 256, 64)      1792      \n                                                                 \n leaky_re_lu (LeakyReLU)     (None, 256, 256, 64)      0         \n                                                                 \n conv2d_38 (Conv2D)          (None, 128, 128, 64)      36928     \n                                                                 \n batch_normalization_33 (Ba  (None, 128, 128, 64)      256       \n tchNormalization)                                               \n                                                                 \n leaky_re_lu_1 (LeakyReLU)   (None, 128, 128, 64)      0         \n                                                                 \n conv2d_39 (Conv2D)          (None, 128, 128, 128)     73856     \n                                                                 \n batch_normalization_34 (Ba  (None, 128, 128, 128)     512       \n tchNormalization)                                               \n                                                                 \n leaky_re_lu_2 (LeakyReLU)   (None, 128, 128, 128)     0         \n                                                                 \n conv2d_40 (Conv2D)          (None, 64, 64, 256)       295168    \n                                                                 \n batch_normalization_35 (Ba  (None, 64, 64, 256)       1024      \n tchNormalization)                                               \n                                                                 \n leaky_re_lu_3 (LeakyReLU)   (None, 64, 64, 256)       0         \n                                                                 \n conv2d_41 (Conv2D)          (None, 64, 64, 512)       1180160   \n                                                                 \n batch_normalization_36 (Ba  (None, 64, 64, 512)       2048      \n tchNormalization)                                               \n                                                                 \n leaky_re_lu_4 (LeakyReLU)   (None, 64, 64, 512)       0         \n                                                                 \n global_average_pooling2d (  (None, 512)               0         \n GlobalAveragePooling2D)                                         \n                                                                 \n dense (Dense)               (None, 1024)              525312    \n                                                                 \n leaky_re_lu_5 (LeakyReLU)   (None, 1024)              0         \n                                                                 \n dense_1 (Dense)             (None, 1)                 1025      \n                                                                 \n=================================================================\nTotal params: 2118081 (8.08 MB)\nTrainable params: 2116161 (8.07 MB)\nNon-trainable params: 1920 (7.50 KB)\n_________________________________________________________________\nDownloading data from https://storage.googleapis.com/tensorflow/keras-applications/
…
