…
:53.001926Z"}},"outputs":[{"name":"stdout","text":"Model: \"model_3\"\n__________________________________________________________________________________________________\n Layer (type)                Output Shape                 Param #   Connected to                  \n==================================================================================================\n input_4 (InputLayer)        [(None, 64, 64, 3)]          0         []                            \n                                                                                                  \n conv2d_42 (Conv2D)          (None, 64, 64, 64)           15616     ['input_4[0][0]']             \n                                                                                                  \n p_re_lu_19 (PReLU)          (None, 64, 64, 64)           64        ['conv2d_42[0][0]']           \n                                                                                                  \n conv2d_43 (Conv2D)          (None, 64, 64, 64)           36928     ['p_re_lu_19[0][0]']          \n                                                                                                  \n batch_normalization_37 (Ba  (None, 64, 64, 64)           256       ['conv2d_43[0][0]']           \n tchNormalization)                                                                                \n                                                                                                  \n p_re_lu_20 (PReLU)          (None, 64, 64, 64)           64        ['batch_normalization_37[0][0]\n                                                                    ']                            \n                                                                                                  \n conv2d_44 (Conv2D)          (None, 64, 64, 64)           36928     ['p_re_lu_20[0][0]']          \n                                                                                                  \n batch_normalization_38 (Ba  (None, 64, 64, 64)           256       ['conv2d_44[0][0]']           \n tchNormalization)                                                                                \n                                                                                                  \n add_17 (Add)                (None, 64, 64, 64)           0         ['p_re_lu_19[0][0]',          \n                                                                     'batch_normalization_38[0][0]\n                                                                    ']                            \n                                                                                                  \n conv2d_45 (Conv2D)          (None, 64, 64, 64)           36928     ['add_17[0][0]']              \n                                                                                                  \n batch_normalization_39 (Ba  (None, 64, 64, 64)           256       ['conv2d_45[0][0]']           \n tchNormalization)                                                                                \n                                                                                                  \n p_re_lu_21 (PReLU)          (None, 64, 64, 64)           64        ['batch_normalization_39[0][0]\n                                                                    ']                            \n                                                                                                  \n conv2d_46 (Conv2D)          (None, 64, 64, 64)           36928     ['p_re_lu_21[0][0]']          \n                                                                                                  \n batch_normalization_40 (Ba  (None, 64, 64, 64)           256       ['conv2d_46[0][0]']           \n tchNormalization)                                                                                \n                                                                                                  \n add_18 (Add)                (None, 64, 64, 64)           0         ['add_17[0][0]',              \n                                                                     'batch_normalization_40[0][0]\n                                                                    ']                            \n                                                                                                  \n conv2d_47 (Conv2D)          (None, 64, 64, 64)           36928     ['add_18[0][0]']              \n                                                                                                  \n batch_normalization_41 (Ba  (None, 64, 64, 64)           256       ['conv2d_47[0][0]']           \n tchNormalization)                                                                                \n                                                                                                  \n p_re_lu_22 (PReLU)          (None, 64, 64, 64)           64        ['batch_normalization_41[0][0]\n                                                                    ']                            \n                                                                                                  \n conv2d_48 (Conv2D)          (None, 64, 64, 64)           36928     ['p_re_lu_22[0][0]']          \n                                                                                                  \n batch_normalization_42 (Ba  (None, 64, 64, 64)           256       ['conv2d_48[0][0]']           \n tchNormalization)                                                                                \n                                                                                                  \n add_19 (Add)                (None, 64, 64, 64)           0         ['add_18[0][0]',              \n                                                                     'batch_normalization_42[0][0]\n                                                                    ']                            \n                                                                                                  \n conv2d_49 (Conv2D)          (None, 64, 64, 64)           36928     ['add_19[0][0]']              \n                                                                                                  \n batch_normalization_43 (Ba  (None, 64, 64, 64)           256       ['conv2d_49[0][0]']           \n tchNormalization)                                                                                \n                                                                                                  \n p_re_lu_23 (PReLU)          (None, 64, 64, 64)           64        ['batch_normalization_43[0][0]\n                                                                    ']                            \n                                                                                                  \n conv2d_50 (Conv2D)          (None, 64, 64, 64)           36928     ['p_re_lu_23[0][0]']          \n                                                                                                  \n batch_normalization_44 (Ba  (None, 64, 64, 64)           256       ['conv2d_50[0][0]']           \n tchNormalization)                                                                                \n                                                                                                  \n add_20 (Add)                (None, 64, 64, 64)           0         ['add_19[0][0]',              \n                                                                     'batch_normalization_44[0][0]\n                                                                    ']                            \n                                                                                                  \n conv2d_51 (Conv2D)          (None, 64, 64, 64)           36928     ['add_20[0][0]']              \n                                                                                                  \n batch_normalization_45 (Ba  (None, 64, 64, 64)           256       ['conv2d_51[0][0]']           \n tchNormalization)                                                                                \n                                                                                                  \n p_re_lu_24 (PReLU)          (None, 64, 64, 64)           64        ['batch_normalization_45[0][0]\n                                                                    ']                            \n                                                                                                  \n conv2d_52 (Conv2D)          (None, 64, 64, 64)           36928     ['p_re_lu_24[0][0]']          \n                                                                                                  \n batch_normalization_46 (Ba  (None, 64, 64, 64)           256       ['conv2d_52[0][0]']           \n tchNormalization)                                                                                \n                                                                                                  \n add_21 (Add)                (None, 64, 64, 64)           0         ['add_20[0][0]',              \n                                                                     'batch_normalization_46[0][0]\n                                                                    ']                            \n                                                                                                  \n conv2d_53 (Conv2D)          (None, 64, 64, 64)           36928     ['add_21[0][0]']              \n                                                                                                  \n batch_normalization_47 (Ba  (None, 64, 64, 64)           256       ['conv2d_53[0][0]']           \n tchNormalization)                                                                                \n                                                                                                  \n p_re_lu_25 (PReLU)          (None, 64, 64, 64)           64        ['batch_normalization_47[0][0]\n                                                                    ']                            \n                                                                                                  \n conv2d_54 (Conv2D)          (None, 64, 64, 64)           36928     ['p_re_lu_25[0][0]']          \n                                                                                                  \n batch_normalization_48 (Ba  (None, 64, 64, 64)           256       ['conv2d_54[0][0]']           \n tchNormalization)                                                                                \n                                                                                                  \n add_22 (Add)                (None, 64, 64, 64)           0         ['add_21[0][0]',              \n                                                                     'batch_normalization_48[0][0]\n                                                                    ']                            \n                                                                                                  \n conv2d_55 (Conv2D)          (None, 64, 64, 64)           36928     ['add_22[0][0]']              \n                                                                                                  \n batch_normalization_49 (Ba  (None, 64, 64, 64)           256       ['conv2d_55[0][0]']           \n tchNormalization)                                                                                \n                                                                                                  \n p_re_lu_26 (PReLU)          (None, 64, 64, 64)           64        ['batch_normalization_49[0][0]\n                                                                    ']                            \n                                                                                                  \n conv2d_56 (Conv2D)          (None, 64, 64, 64)           36928     ['p_re_lu_26[0][0]']          \n                                                                                                  \n batch_normalization_50 (Ba  (None, 64, 64, 64)           256       ['conv2d_56[0][0]']           \n tchNormalization)                                                                                \n                                                                                                  \n add_23 (Add)                (None, 64, 64, 64)           0         ['add_22[0][0]',              \n                                                                     'batch_normalization_50[0][0]\n                                                                    ']                            \n                                                                                                  \n conv2d_57 (Conv2D)          (None, 64, 64, 64)           36928     ['add_23[0][0]']              \n                                                                                                  \n batch_normalization_51 (Ba  (None, 64, 64, 64)           256       ['conv2d_57[0][0]']           \n tchNormalization)                                                                                \n                                                                                                  \n p_re_lu_27 (PReLU)          (None, 64, 64, 64)           64        ['batch_normalization_51[0][0]\n                                                                    ']                            \n                                                                                                  \n conv2d_58 (Conv2D)          (None, 64, 64, 64)           36928     ['p_re_lu_27[0][0]']          \n                                                                                                  \n batch_normalization_52 (Ba  (None, 64, 64, 64)           256       ['conv2d_58[0][0]']           \n tchNormalization)                                                                                \n                                                                                                  \n add_24 (Add)                (None, 64, 64, 64)           0         ['add_23[0][0]',              \n                                                                     'batch_normalization_52[0][0]\n                                                                    ']                            \n                                                                                                  \n conv2d_59 (Conv2D)          (None, 64, 64, 64)           36928     ['add_24[0][0]']              \n                                                                                                  \n batch_normalization_53 (Ba  (None, 64, 64, 64)           256       ['conv2d_59[0][0]']           \n tchNormalization)                                                                                \n                                                                                                  \n p_re_lu_28 (PReLU)          (None, 64, 64, 64)           64        ['batch_normalization_53[0][0]\n                                                                    ']                            \n                                                                                                  \n conv2d_60 (Conv2D)          (None, 64, 64, 64)           36928     ['p_re_lu_28[0][0]']          \n                                                                                                  \n batch_normalization_54 (Ba  (None, 64, 64, 64)           256       ['conv2d_60[0][0]']           \n tchNormalization)                                                                                \n                                                                                                  \n add_25 (Add)                (None, 64, 64, 64)           0         ['add_24[0][0]',              \n                                                                     'batch_normalization_54[0][0]\n                                                                    ']                            \n                                                                                                  \n conv2d_61 (Conv2D)          (None, 64, 64, 64)           36928     ['add_25[0][0]']              \n                                                                                                  \n batch_normalization_55 (Ba  (None, 64, 64, 64)           256       ['conv2d_61[0][0]']           \n tchNormalization)                                                                                \n                                                                                                  \n p_re_lu_29 (PReLU)          (None, 64, 64, 64)           64        ['batch_normalization_55[0][0]\n                                                                    ']                            \n                                                                                                  \n conv2d_62 (Conv2D)          (None, 64, 64, 64)           36928     ['p_re_lu_29[0][0]']          \n                                                                                                  \n batch_normalization_56 (Ba  (None, 64, 64, 64)           256       ['conv2d_62[0][0]']           \n tchNormalization)                                                                                \n                                                                                                  \n add_26 (Add)                (None, 64, 64, 64)           0         ['add_25[0][0]',              \n                                                                     'batch_normalization_56[0][0]\n                                                                    ']                            \n                                                                                                  \n conv2d_63 (Conv2D)          (None, 64, 64, 64)           36928     ['add_26[0][0]']              \n                                                                                                  \n batch_normalization_57 (Ba  (None, 64, 64, 64)           256       ['conv2d_63[0][0]']           \n tchNormalization)                                                                                \n                                                                                                  \n p_re_lu_30 (PReLU)          (None, 64, 64, 64)           64        ['batch_normalization_57[0][0]\n                                                                    ']                            \n                                                                                                  \n conv2d_64 (Conv2D)          (None, 64, 64, 64)           36928     ['p_re_lu_30[0][0]']          \n                                                                                                  \n batch_normalization_58 (Ba  (None, 64, 64, 64)           256       ['conv2d_64[0][0]']           \n tchNormalization)                                                                                \n                                                                                                  \n add_27 (Add)                (None, 64, 64, 64)           0         ['add_26[0][0]',              \n                                                                     'batch_normalization_58[0][0]\n                                                                    ']                            \n                                                                                                  \n conv2d_65 (Conv2D)          (None, 64, 64, 64)           36928     ['add_27[0][0]']              \n                                                                                                  \n batch_normalization_59 (Ba  (None, 64, 64, 64)           256       ['conv2d_65[0][0]']           \n tchNormalization)                                                                                \n                                                                                                  \n p_re_lu_31 (PReLU)          (None, 64, 64, 64)           64        ['batch_normalization_59[0][0]\n                                                                    ']                            \n                                                                                                  \n conv2d_66 (Conv2D)          (None, 64, 64, 64)           36928     ['p_re_lu_31[0][0]']          \n                                                                                                  \n batch_normalization_60 (Ba  (None, 64, 64, 64)           256       ['conv2d_66[0][0]']           \n tchNormalization)                                                                                \n                                                                                                  \n add_28 (Add)                (None, 64, 64, 64)           0         ['add_27[0][0]',              \n                                                                     'batch_normalization_60[0][0]\n                                                                    ']                            \n                                                                                                  \n conv2d_67 (Conv2D)          (None, 64, 64, 64)           36928     ['add_28[0][0]']              \n                                                                                                  \n batch_normalization_61 (Ba  (None, 64, 64, 64)           256       ['conv2d_67[0][0]']           \n tchNormalization)                                                                                \n                                                                                                  \n p_re_lu_32 (PReLU)          (None, 64, 64, 64)           64        ['batch_normalization_61[0][0]\n                                                                    ']                            \n                                                                                                  \n conv2d_68 (Conv2D)          (None, 64, 64, 64)           36928     ['p_re_lu_32[0][0]']          \n                                                                                                  \n batch_normalization_62 (Ba  (None, 64, 64, 64)           256       ['conv2d_68[0][0]']           \n tchNormalization)                                                                                \n                                                                                                  \n add_29 (Add)                (None, 64, 64, 64)           0         ['add_28[0][0]',              \n                                                                     'batch_normalization_62[0][0]\n                                                                    ']                            \n                                                                                                  \n conv2d_69 (Conv2D)          (None, 64, 64, 64)           36928     ['add_29[0][0]']              \n                                                                                                  \n batch_normalization_63 (Ba  (None, 64, 64, 64)           256       ['conv2d_69[0][0]']           \n tchNormalization)                                                                                \n                                                                                                  \n p_re_lu_33 (PReLU)          (None, 64, 64, 64)           64        ['batch_normalization_63[0][0]\n                                                                    ']                            \n                                                                                                  \n conv2d_70 (Conv2D)          (None, 64, 64, 64)           36928     ['p_re_lu_33[0][0]']          \n                                                                                                  \n batch_normalization_64 (Ba  (None, 64, 64, 64)           256       ['conv2d_70[0][0]']           \n tchNormalization)                                                                                \n                                                                                                  \n add_30 (Add)                (None, 64, 64, 64)           0         ['add_29[0][0]',              \n                                                                     'batch_normalization_64[0][0]\n                                                                    ']                            \n                                                                                                  \n conv2d_71 (Conv2D)          (None, 64, 64, 64)           36928     ['add_30[0][0]']              \n                                                                                                  \n batch_normalization_65 (Ba  (None, 64, 64, 64)           256       ['conv2d_71[0][0]']           \n tchNormalization)                                                                                \n                                                                                                  \n p_re_lu_34 (PReLU)          (None, 64, 64, 64)           64        ['batch_normalization_65[0][0]\n                                                                    ']                            \n                                                                                                  \n conv2d_72 (Conv2D)          (None, 64, 64, 64)           36928     ['p_re_lu_34[0][0]']          \n                                                                                                  \n batch_normalization_66 (Ba  (None, 64, 64, 64)           256       ['conv2d_72[0][0]']           \n tchNormalization)                                                                                \n                                                                                                  \n add_31 (Add)                (None, 64, 64, 64)           0         ['add_30[0][0]',              \n                                                                     'batch_normalization_66[0][0]\n                                                                    ']                            \n                                                                                                  \n conv2d_73 (Conv2D)          (None, 64, 64, 64)           36928     ['add_31[0][0]']              \n                                                                                                  \n batch_normalization_67 (Ba  (None, 64, 64, 64)           256       ['conv2d_73[0][0]']           \n tchNormalization)                                                                                \n                                                                                                  \n p_re_lu_35 (PReLU)          (None, 64, 64, 64)           64        ['batch_normalization_67[0][0]\n                                                                    ']                            \n                                                                                                  \n conv2d_74 (Conv2D)          (None, 64, 64, 64)           36928     ['p_re_lu_35[0][0]']          \n                                                                                                  \n batch_normalization_68 (Ba  (None, 64, 64, 64)           256       ['conv2d_74[0][0]']           \n tchNormalization)                                                                                \n                                                                                                  \n add_32 (Add)                (None, 64, 64, 64)           0         ['add_31[0][0]',              \n                                                                     'batch_normalization_68[0][0]\n                                                                    ']                            \n                                                                                                  \n conv2d_75 (Conv2D)          (None, 64, 64, 64)           36928     ['add_32[0][0]']              \n                                                                                                  \n batch_normalization_69 (Ba  (None, 64, 64, 64)           256       ['conv2d_75[0][0]']           \n tchNormalization)                                                                                \n                                                                                                  \n add_33 (Add)                (None, 64, 64, 64)           0         ['p_re_lu_19[0][0]',          \n                                                                     'batch_normalization_69[0][0]\n                                                                    ']                            \n                                                                                                  \n conv2d_76 (Conv2D)          (None, 64, 64, 256)          147712    ['add_33[0][0]']              \n                                                                                                  \n lambda_2 (Lambda)           (None, 128, 128, 64)         0         ['conv2d_76[0][0]']           \n                                                                                                  \n p_re_lu_36 (PReLU)          (None, 128, 128, 64)         64        ['lambda_2[0][0]']            \n                                                                                                  \n conv2d_77 (Conv2D)          (None, 128, 128, 256)        147712    ['p_re_lu_36[0][0]']          \n                                                                                                  \n lambda_3 (Lambda)           (None, 256, 256, 64)         0         ['conv2d_77[0][0]']           \n                                                                                                  \n p_re_lu_37 (PReLU)          (None, 256, 256, 64)         64        ['lambda_3[0][0]']            \n                                                                                                  \n conv2d_78 (Conv2D)          (None, 256, 256, 3)          15555     ['p_re_lu_37[0][0]']          \n                                                                                                  \n==================================================================================================\nTotal params: 1554883 (5.93 MB)\nTrainable params: 1550659 (5.92 MB)\nNon-trainable params: 4224 (16.50 KB)\n__________________________________________________________________________________________________\nModel: \"model_4\"\n_________________________________________________________________\n Layer (type)                Output Shape              Param #   \n=================================================================\n input_5 (InputLayer)        [(None, 256, 256, 3)]     0         \n                                                                 \n conv2d_79 (Conv2D)          (None, 256, 256, 64)      1792      \n                                                                 \n leaky_re_lu_6 (LeakyReLU)   (None, 256, 256, 64)      0         \n                                                                 \n conv2d_80 (Conv2D)          (None, 128, 128, 64)      36928     \n                                                                 \n batch_normalization_70 (Ba  (None, 128, 128, 64)      256       \n tchNormalization)                                               \n                                                                 \n leaky_re_lu_7 (LeakyReLU)   (None, 128, 128, 64)      0         \n                                                                 \n conv2d_81 (Conv2D)          (None, 128, 128, 128)     73856     \n                                                                 \n batch_normalization_71 (Ba  (None, 128, 128, 128)     512       \n tchNormalization)                                               \n                                                                 \n leaky_re_lu_8 (LeakyReLU)   (None, 128, 128, 128)     0         \n                                                                 \n conv2d_82 (Conv2D)          (None, 64, 64, 256)       295168    \n                                                                 \n batch_normalization_72 (Ba  (None, 64, 64, 256)       1024      \n tchNormalization)                                               \n                                                                 \n leaky_re_lu_9 (LeakyReLU)   (None, 64, 64, 256)       0         \n                                                                 \n conv2d_83 (Conv2D)          (None, 64, 64, 512)       1180160   \n                                                                 \n batch_normalization_73 (Ba  (None, 64, 64, 512)       2048      \n tchNormalization)                                               \n                                                                 \n leaky_re_lu_10 (LeakyReLU)  (None, 64, 64, 512)       0         \n                                                                 \n global_average_pooling2d_1  (None, 512)               0         \n  (GlobalAveragePooling2D)                                       \n                                                                 \n dense_2 (Dense)             (None, 1024)              525312    \n                                                                 \n leaky_re_lu_11 (LeakyReLU)  (None, 1024)              0         \n                                                                 \n dense_3 (Dense)             (None, 1)                 1025      \n                                                                 \n=================================================================\nTotal params: 2118081 (8.08 MB)\nTrainable params: 2116161 (8.07 MB)\nNon-trainable params: 1920 (7.50 KB)\n_________________________________________________________________\n","output_type":"stream"}],"execution_count":23},{"cell_type":"code","source":"\n\n
…
